…
  },
  {
   "cell_type": "markdown",
   "id": "3239c823",
   "metadata": {},
   "source": [
    "CNN MODEL\n"
   ]
  },
  {
   "cell_type": "code",
   "execution_count": 3,
   "id": "19e59c60",
   "metadata": {},
   "outputs": [
    {
     "name": "stdout",
     "output_type": "stream",
     "text": [
      "Model: \"sequential\"\n",
      "_________________________________________________________________\n",
      "Layer (type)                 Output Shape              Param #   \n",
      "=================================================================\n",
      "conv2d (Conv2D)              (None, 48, 48, 64)        640       \n",
      "_________________________________________________________________\n",
      "batch_normalization (BatchNo (None, 48, 48, 64)        256       \n",
      "_________________________________________________________________\n",
      "activation (Activation)      (None, 48, 48, 64)        0         \n",
      "_________________________________________________________________\n",
      "max_pooling2d (MaxPooling2D) (None, 24, 24, 64)        0         \n",
      "_________________________________________________________________\n",
      "dropout (Dropout)            (None, 24, 24, 64)        0         \n",
      "_________________________________________________________________\n",
      "conv2d_1 (Conv2D)            (None, 24, 24, 128)       204928    \n",
      "_________________________________________________________________\n",
      "batch_normalization_1 (Batch (None, 24, 24, 128)       512       \n",
      "_________________________________________________________________\n",
      "activation_1 (Activation)    (None, 24, 24, 128)       0         \n",
      "_________________________________________________________________\n",
      "max_pooling2d_1 (MaxPooling2 (None, 12, 12, 128)       0         \n",
      "_________________________________________________________________\n",
      "dropout_1 (Dropout)          (None, 12, 12, 128)       0         \n",
      "_________________________________________________________________\n",
      "conv2d_2 (Conv2D)            (None, 12, 12, 128)       409728    \n",
      "_________________________________________________________________\n",
      "batch_normalization_2 (Batch (None, 12, 12, 128)       512       \n",
      "_________________________________________________________________\n",
      "activation_2 (Activation)    (None, 12, 12, 128)       0         \n",
      "_________________________________________________________________\n",
      "max_pooling2d_2 (MaxPooling2 (None, 6, 6, 128)         0         \n",
      "_________________________________________________________________\n",
      "dropout_2 (Dropout)          (None, 6, 6, 128)         0         \n",
      "_________________________________________________________________\n",
      "conv2d_3 (Conv2D)            (None, 6, 6, 512)         590336    \n",
      "_________________________________________________________________\n",
      "batch_normalization_3 (Batch (None, 6, 6, 512)         2048      \n",
      "_________________________________________________________________\n",
      "activation_3 (Activation)    (None, 6, 6, 512)         0         \n",
      "_________________________________________________________________\n",
      "max_pooling2d_3 (MaxPooling2 (None, 3, 3, 512)         0         \n",
      "_________________________________________________________________\n",
      "dropout_3 (Dropout)          (None, 3, 3, 512)         0         \n",
      "_________________________________________________________________\n",
      "flatten (Flatten)            (None, 4608)              0         \n",
      "_________________________________________________________________\n",
      "dense (Dense)                (None, 256)               1179904   \n",
      "_________________________________________________________________\n",
      "batch_normalization_4 (Batch (None, 256)               1024      \n",
      "_________________________________________________________________\n",
      "activation_4 (Activation)    (None, 256)               0         \n",
      "_________________________________________________________________\n",
      "dropout_4 (Dropout)          (None, 256)               0         \n",
      "_________________________________________________________________\n",
      "dense_1 (Dense)              (None, 512)               131584    \n",
      "_________________________________________________________________\n",
      "batch_normalization_5 (Batch (None, 512)               2048      \n",
      "_________________________________________________________________\n",
      "activation_5 (Activation)    (None, 512)               0         \n",
      "_________________________________________________________________\n",
      "dropout_5 (Dropout)          (None, 512)               0         \n",
      "_________________________________________________________________\n",
      "dense_2 (Dense)              (None, 7)                 3591      \n",
      "=================================================================\n",
      "Total params: 2,527,111\n",
      "Trainable params: 2,523,911\n",
      "Non-trainable params: 3,200\n",
      "_________________________________________________________________\n"
     ]
    }
   ],
   "source": [
    "model = Sequential()\n",
    "\n",
    "model.add(Conv2D(64,(3,3), padding = 'same' , input_shape = (48,48,1)))\n",
…
